model/model.pth (torch, 16799 bytes, 4 tensors)

linear1.weight f4 [256, 11]
000000 0c fd 21 3e 32 6a 87 3d af 5c 2b bf e3 03 11 bf
       0.15819186 0.06612052 -0.669383 -0.56646556
000010 bb e3 07 3e 2b d5 d5 bd 01 f8 0f 3e 19 11 06 3d
       0.13270466 -0.10441049 0.1405945 0.03273115
000020 e2 28 a4 be 39 e8 33 bf ed d7 51 be 69 99 b8 bc
       -0.3206244 -0.7027622 -0.20492525 -0.02253409
000030 f6 39 8e 3b 22 57 0e bf bd 08 99 3e 1f 26 92 be
       0.0043404056 -0.55601704 0.2988948 -0.2854471
000040 72 93 19 3f c6 b8 5a be 3c 69 83 be 12 6a 47 bf
       0.5999061 -0.21359548 -0.25666225 -0.77896225
000050 dd 9f b5 3e 89 08 fe be d5 48 ef be 12 fa a1 3e
       0.35473529 -0.49615887 -0.46735254 0.316361
000060 b2 d9 80 3e fe c7 ba 3d 66 d7 d2 3a c9 d0 9c be
       0.25166088 0.09120177 0.0016085922 -0.3062804
000070 25 0f 34 be 55 9d 34 3e f0 04 9b bd 80 e2 f0 bd
       -0.17583902 0.17638142 -0.07569301 -0.117619514
000080 c9 26 08 be a0 dd 15 bf 5f 25 7f 3e 38 cf 52 3e
       -0.13296045 -0.585413 0.249166 0.2058686
000090 97 a3 b8 bd 4b 52 48 3e 03 ec 34 bf 1f 63 fd be
       -0.09015577 0.19562642 -0.70672625 -0.49489686
0000a0 3c 45 96 bd 69 ec 76 3e 2a 46 0a bf f9 c3 17 bf
       -0.07337424 0.24113621 -0.5401331 -0.59283406
0000b0 9a 40 a5 3e 57 eb 53 3f d9 71 e0 3e c5 2b 7c bc
       0.3227585 0.82780975 0.4383686 -0.015391295
0000c0 c5 90 8c bd 33 f2 ce 3d a6 08 12 be f6 2d 0f 3f
       -0.0686355 0.101047896 -0.14261112 0.55929506
0000d0 a1 23 94 3e ef aa 96 3e d5 36 03 3f d8 b4 24 3d
       0.28933433 0.29427287 0.5125554 0.04021153
0000e0 18 d2 71 be 9a 31 f2 be 7f a8 de be 15 6d fe 3e
       -0.236153 -0.47303468 -0.43487927 0.49692598
0000f0 3a a2 80 3e 28 2f 8d be eb 14 21 bf 76 23 8a be
       0.2512377 -0.2757504 -0.62922543 -0.2698018
000100 bc f1 e7 be 13 83 9e 3e f0 1c 19 be 8f 15 6a be
       -0.45301616 0.30959377 -0.14952445 -0.22859786
000110 f9 6a 3a be e0 18 0b be 1b 2b 26 bd 4b d2 c9 3d
       -0.1820487 -0.13583708 -0.040568452 0.09854563
000120 f3 b4 2e be b2 6a e3 bc 87 3b fe bd 36 c3 74 be
       -0.17061214 -0.027760837 -0.12413698 -0.23902592
000130 9c 4b 14 be 03 97 c4 be 8a 49 a5 bc 4b 5c 2c 3b
       -0.14481968 -0.38396463 -0.020176668 0.0026300128
000140 70 65 8d be 01 a5 07 be 9c 52 a7 3d b5 6a 81 bd
       -0.27616453 -0.13246538 0.08170053 -0.06319181
000150 4c d1 f5 bc 54 39 49 be 4c 92 60 be 08 52 6d 3e
       -0.030007027 -0.19650775 -0.21930808 0.23175824
000160 7b d0 98 be 08 7a 8f 3e dd 13 06 be f9 b0 78 3e
       -0.29846558 0.2802279 -0.13093515 0.2428626
000170 e6 a2 94 3e 1a 59 0b bf 79 8d 0e bf d0 a7 e4 3e
       0.29030532 -0.54432833 -0.5568462 0.4465928
000180 60 26 df 3e c2 8a f9 be 35 13 ee be 5b e2 8a be
       0.43583965 -0.48738676 -0.4649903 -0.2712582
000190 1e 8b 3e be b4 ba 2e 3c 3e 10 42 be ad 19 fa 3c
       -0.18607756 0.010664631 -0.18951508 0.030529821
0001a0 8e 33 36 be 53 db 26 be c9 5f 6d be 35 92 0f 3e
       -0.17793104 -0.16294603 -0.2318107 0.14020617
0001b0 bb e9 75 3c 35 e1 14 be 61 8a 85 3e 81 33 7f bf
       0.015009339 -0.14539035 0.26082137 -0.99687964
0001c0 53 d5 6e 3e ee 25 d1 3e b5 3b 5a bf ee 0e cb bd
       0.23323564 0.4084925 -0.85247356 -0.09914957
0001d0 c1 0b 61 bf a1 87 06 bd 6f f1 67 bf 0f 52 e1 be
       -0.8790856 -0.03284419 -0.90602773 -0.44007918
0001e0 6f 00 fb 3e ff 1e c0 3d 1a 92 35 3e f1 3b 8f 3d
       0.49023768 0.09380912 0.17731515 0.06993855
0001f0 48 1d f6 bc 06 9d b5 be 13 d5 83 be 50 db 66 be
       -0.03004326 -0.35471362 -0.257485 -0.22544599
000200 61 c5 4c 3e de 11 c2 bd a5 8c bb bd f1 ed b0 3d
       0.19997169 -0.09476064 -0.09157685 0.08639134
000210 62 6b 93 3c e2 ff 03 be 40 ac d4 3b 85 f5 99 be
       0.01799554 -0.1289058 0.0064902604 -0.3007013
000220 cd 1d fd 3d d3 8f 42 be d7 26 49 be 27 44 77 3b
       0.123592 -0.19000177 -0.19643722 0.003772983
000230 0b 19 5d 3e 3c 6f 83 be 4f 2f eb bd dd 41 4c 3f
       0.21591584 -0.25670803 -0.11483633 0.79788
000240 08 72 d6 3d 6e 6e 56 bf d5 39 bb 3c da a8 88 be
       0.104709685 -0.8376225 0.022854725 -0.26691324
000250 e4 6a c9 be 46 95 82 be de f4 cf 3d a7 86 27 be
       -0.39339364 -0.25504512 0.101541266 -0.1635996
000260 68 1c 8e 3e 83 57 2a 3e c9 21 d7 bc c7 16 ec 3d
       0.27756047 0.16634946 -0.026261227 0.11527782
000270 2f 15 9f 3d b9 d3 56 be 6b 0f e8 bd 82 c2 5e 3e
       0.07767712 -0.20979203 -0.11331066 0.21753886
000280 43 e0 7c be 17 2a 51 be 2e fd 2e be 1d 2e f8 be
       -0.24694924 -0.20426212 -0.17088768 -0.48472682
000290 c0 34 7c 3d a4 89 8f be 0b b0 d2 3d 3b e9 8c 3d
       0.061573744 -0.280347 0.10287484 0.06880423
0002a0 56 a4 de bd c6 a7 09 3c e4 60 ae bd 27 b6 f7 3b
       -0.10871188 0.008401817 -0.08514574 0.007559556
0002b0 e0 17 cf bd 59 b6 d6 bd dd 2e eb bd 33 ed 10 3d
       -0.10111976 -0.10483999 -0.11483548 0.03538246
0002c0 a3 e2 48 bf 64 54 d9 3d 78 8a 0f 3f 89 c8 e1 3d
       -0.7847082 0.10611799 0.5607066 0.11024577
0002d0 0e 78 6e bf 1b 6b 8b 3e 13 76 0f 3e ec b5 0a bf
       -0.9315194 0.27230152 0.14009885 -0.5418384
0002e0 aa 66 38 bf 91 de a2 bc 54 7d 8a 3d 33 e8 a1 bd
       -0.7203165 -0.019881519 0.06762186 -0.079056166
0002f0 1a a1 09 be 1d 2c f2 be c2 7b 71 3c a3 d9 ba 3d
       -0.13440362 -0.4729928 0.014738979 0.09123542
000300 c5 f3 30 3e 5c 4a 9d bd 38 8d a8 bd 4f 4a 3c be
       0.1728049 -0.076801986 -0.0823006 -0.18387721
000310 99 7f fc 3d f6 7c 30 3c 3d 2a 10 3e 4e ef 93 bd
       0.12329025 0.0107719805 0.14078613 -0.07223378
000320 44 5f 98 bc 66 1b bd 3e 7f f1 07 3f 59 cc 35 bf
       -0.018600114 0.36934966 0.5310287 -0.71014935
000330 e2 5c 5e be 2b d8 1f bf af ca 2e bf 43 4a 27 3f
       -0.2171512 -0.6243922 -0.6827802 0.6534769
000340 92 a4 59 3e b8 44 b1 be 42 16 23 3f f9 44 73 bd
       0.21254185 -0.3462274 0.6370584 -0.05939195
000350 49 0e 81 3e c5 2d 4f 3e 3c 59 e3 3e bb f2 a5 be
       0.2520621 0.20232303 0.44404018 -0.3241175
000360 96 f9 f9 3d 19 80 13 be 8d ba 15 be 77 2a 68 bf
       0.12205808 -0.14404334 -0.14621945 -0.90689796
000370 24 10 1e bf ce 3c 00 3f 84 71 14 3e 45 73 af 3d
       -0.6174338 0.5009278 0.14496428 0.08566908
000380 46 06 50 3e e4 69 2d 3d f3 e0 14 bf cc d1 15 3c
       0.20314893 0.042337313 -0.58155745 0.009144258
000390 a4 d6 38 3e dc cb 2c bf a6 bb 03 bf 5c 9a 5b 3e
       0.18050629 -0.67498565 -0.51458204 0.21445602
0003a0 3a cb 96 3d 25 2e 2f bf f4 13 cd be 9d bb 3d 3e
       0.07362981 -0.68429786 -0.40054286 0.185286
0003b0 e5 db cc be 3a 8e dc be 12 75 d0 be 99 54 54 bd
       -0.40011516 -0.4307726 -0.40714318 -0.05183849
0003c0 27 f0 26 bd 71 05 97 3e 5b 6e df bd 66 a6 48 3f
       -0.04075637 0.2949634 -0.109097205 0.78378904
0003d0 1e 73 7e 3e 33 05 31 3e a4 21 60 bf f5 92 82 3e
       0.24848601 0.1728714 -0.8755133 0.25502744
0003e0 c4 47 9f bd 82 b0 99 be c7 44 e1 be 99 2f 94 3d
       -0.0777736 -0.30017477 -0.43997785 0.07235641
0003f0 bc 72 bb be 21 b4 ea 3d 0b b2 76 3f 0f d8 20 3f
       -0.36610973 0.11460138 0.9636542 0.6282968

linear1.bias f4 [256]
000000 70 67 b0 3e df cc 5c be 78 49 f3 be 68 36 ac 3d
       0.34453917 -0.21562527 -0.4751699 0.08408815
000010 c9 19 f2 be 49 0a 89 bd 7a 25 92 bd d5 65 b6 be
       -0.47285298 -0.06691415 -0.07136054 -0.35624567
000020 1b 46 b9 3d 5f 50 97 be 83 62 db bd 8f b6 08 bf
       0.09046575 -0.29553506 -0.10712149 -0.5340356
000030 20 99 c4 be 28 88 31 be 5e dc ff be 5a f3 7b be
       -0.38398075 -0.17337096 -0.49972814 -0.2460455
000040 28 71 87 3e 56 7f 98 be 08 76 e8 b8 26 fd f7 3e
       0.2645352 -0.2978465 -0.00011084607 0.48435324
000050 e6 de 1f 3d a7 32 61 be 16 9d e0 bb 52 d1 68 be
       0.039030932 -0.21991979 -0.0068546636 -0.227361
000060 12 94 eb bd 83 c3 d0 be 6a 84 c8 3c 48 c7 04 be
       -0.115028515 -0.40774164 0.024477202 -0.12966645
000070 25 21 b7 be 25 69 b4 bd c3 58 bb be eb 49 a3 3e
       -0.35767475 -0.08809117 -0.36591157 0.31892332
000080 93 8d 00 bf 62 08 9d 3d 65 1f 06 be 9f 9e a7 be
       -0.50216025 0.076676145 -0.13097914 -0.32738206
000090 6b 1c 36 3d 11 30 5f be fe 4a e9 bd 31 80 ec bd
       0.044460695 -0.2179568 -0.11391257 -0.11547888
0000a0 98 9e 9d be 7c ee a8 be 52 4c 73 be bf d2 59 bd
       -0.3078506 -0.3299445 -0.23759583 -0.0531795
0000b0 0f 1b 14 3e 62 07 a1 be 43 e9 4c be 18 67 5d be
       0.14463447 -0.31450945 -0.20010857 -0.21621358
0000c0 37 32 00 bf ad eb 25 bf ea ad 54 3e 10 80 fd bb
       -0.5007662 -0.6481274 0.20769468 -0.0077362135
0000d0 0a c7 08 be 8a 0e 08 3f 47 cd 17 3f 1d 96 48 be
       -0.13357177 0.53147185 0.59297603 -0.19588514
0000e0 7b 8f 12 be c4 03 41 be da 7d 0c 3e 3b 37 86 be
       -0.14312546 -0.18849093 0.13719884 -0.26214013
0000f0 dd f1 cc 3e ed 85 d0 3d 80 d8 a4 be 0f e5 b5 3c
       0.40028277 0.10181794 -0.32196426 0.02220395
000100 d6 ef 6f 3e ef 85 94 3e fd 48 0d bf 0d d7 bf 3e
       0.23431334 0.29008433 -0.55189496 0.37468758
000110 9a 13 e4 3d ee 41 86 be 44 5a 5b be 92 f2 ca 3d
       0.11136551 -0.26222175 -0.21421152 0.09909548
000120 d2 52 b3 be d9 73 d1 be d6 d5 84 3e 84 b1 94 bd
       -0.35024124 -0.40908697 0.25944394 -0.07260421
000130 b4 49 09 be bc ce 10 bd ef e8 8f be 85 d8 68 bd
       -0.13407022 -0.035353407 -0.28107402 -0.056847114
000140 10 af c5 be ce 5c e2 be da 80 b9 be 5b ce b4 be
       -0.38610125 -0.4421143 -0.36231118 -0.35313687
000150 47 11 a7 be 9d 86 00 bf b7 3b 99 be 6e c9 bb be
       -0.3263037 -0.50205404 -0.2992837 -0.36677116
000160 3f 03 f6 3d ef 49 5f be 43 58 29 bd 44 b1 7a 3e
       0.12012338 -0.21805547 -0.04134394 0.24481684
000170 90 24 e6 3d fc 00 f6 be 9d da ce be a5 29 e8 bd
       0.112374425 -0.48047626 -0.40401164 -0.11336068
000180 c0 93 96 bd 13 8a f5 bd 78 06 5b bc 5c ed 64 be
       -0.073524 -0.11989226 -0.0133682415 -0.2235617
000190 a9 d9 97 be f3 a2 90 be c2 da 50 3e d8 ba 86 bd
       -0.2965825 -0.2824932 0.2039595 -0.06578606
0001a0 29 e2 c9 be 9a 09 c6 bd f4 1d 06 bd 71 63 f0 bc
       -0.3943036 -0.096698 -0.03274341 -0.029344292
0001b0 87 99 a4 3c e5 79 0a bf 19 f0 4a be 79 12 0d bc
       0.020092739 -0.54092246 -0.19818152 -0.008610361
0001c0 f0 79 37 bd 5b 87 91 be 6d 4c 1d bf 43 c6 35 3f
       -0.044794023 -0.2842358 -0.6144474 0.7100565
0001d0 49 52 c7 3b 92 82 8b bd 38 f2 a3 3e 18 e3 6a be
       0.006082807 -0.06812014 0.32020736 -0.22938192
0001e0 5c 3c c7 be 24 2c 91 3e 17 00 04 3f ec 40 ba be
       -0.38913238 0.2835399 0.5156264 -0.36377656
0001f0 5d 3c 07 bf 7d eb 5f 3e 67 a0 0a 3f 4e 79 c3 be
       -0.5282648 0.21867175 0.54151005 -0.38178486
000200 d6 a7 75 be 17 8d 04 bf 57 d5 e2 be d1 3e 65 bd
       -0.23989806 -0.51777786 -0.4430339 -0.05596811
000210 0c 79 09 bf 1e 8f 32 3f e9 19 dd be 22 19 f8 bd
       -0.5370033 0.6974963 -0.4318383 -0.12114169
000220 69 c1 93 bd 74 f4 89 be 4f cc f7 3c 69 5e c4 3d
       -0.072146244 -0.26944315 0.03024879 0.0958832
000230 18 c6 c9 3d f4 4c 1b be bd b3 ff 3c 1d 78 b8 be
       0.098522365 -0.15166074 0.031213636 -0.3602914
000240 10 ce c6 3d 46 7e 7c be ab 7c 2d be 46 08 f2 be
       0.09707272 -0.24657544 -0.16942088 -0.47271937
000250 0b e1 b9 be 68 8e a5 be 6d 1b 7b be 90 4f 1a bf
       -0.36304507 -0.3233521 -0.24522181 -0.6027765
000260 b8 f3 96 3e 89 0d fa be de 5e f9 3e 49 25 a5 be
       0.29482818 -0.48838452 0.4870519 -0.3225501
000270 26 73 73 be 5b ad 32 be d4 bd 24 3e 11 e9 fc 3d
       -0.23774394 -0.17448942 0.16088039 0.123491414
000280 6f fc 9f be f6 d6 ab 3e 92 00 8c be 06 16 9e bd
       -0.3124728 0.3356244 -0.27344185 -0.077190444
000290 53 8f bb be a7 cf d1 3d 03 c9 47 3e d4 b6 00 bf
       -0.36632785 0.10244685 0.19510274 -0.50278974
0002a0 be aa c3 3b 75 34 89 3e 0e 4e ba be 2e d1 01 bf
       0.005971282 0.26797834 -0.36387676 -0.5070981
0002b0 61 cd 4e be 24 ee 46 be 4d 44 2b be aa b7 cf bd
       -0.20195533 -0.19426781 -0.16725273 -0.10142453
0002c0 80 88 48 be 0e b4 a1 be c2 44 78 be 44 7d cd be
       -0.1958332 -0.31582683 -0.24244979 -0.40134633
0002d0 eb 69 ed bd 68 78 e6 bd 29 e7 7a be 7f 9a df be
       -0.11592468 -0.112534344 -0.24502243 -0.4367256
0002e0 b2 ad bf 3d d9 c9 4d be b3 6a 07 bf 9e fc f0 bc
       0.093593016 -0.2009653 -0.52897185 -0.029417332
0002f0 30 cd ae 3f 87 68 44 be 81 bf ad bc bc 82 d2 be
       1.3656368 -0.19180499 -0.02120948 -0.41115367
000300 e5 9b 11 bf 12 84 b2 be dd 13 c7 3d 6e 50 b7 3e
       -0.568785 -0.34866387 0.097205855 0.3580355
000310 57 c5 ac 3a 61 ce b5 bc 62 59 8d be b4 40 5a be
       0.001318137 -0.022193136 -0.27607256 -0.21313745
000320 3d 43 b8 bd ea 91 70 be ba 9b a2 bc 6f cb 95 3c
       -0.089972 -0.23493162 -0.019849647 0.018285481
000330 52 94 c3 be 07 74 bf be 44 80 62 be ff f8 ad be
       -0.38199097 -0.3739321 -0.22119242 -0.3397903
000340 73 d5 3b 3d 0d ec 9a be ce 46 d9 be 88 23 0b bf
       0.045857858 -0.30258217 -0.42436832 -0.5435109
000350 46 3b 1d be 5f 93 00 3f ca ef 65 be 28 29 71 bd
       -0.15354642 0.5022487 -0.22454754 -0.05887714
000360 31 58 c3 3e 9b c6 07 be e0 28 cd bd 72 a7 01 be
       0.38153222 -0.13259356 -0.10017562 -0.12661532
000370 84 1f d1 3c df 11 f5 bc c5 2b 94 be 0d f4 7c be
       0.025527723 -0.029915748 -0.28939644 -0.24702473
000380 60 a3 12 be 6f f4 67 be 3a da 7b be 08 ea 1d be
       -0.14320135 -0.22651838 -0.24594966 -0.15421307
000390 99 e4 2b be 24 53 5c be 96 35 6a bd f2 57 7b be
       -0.16786422 -0.2151609 -0.05718001 -0.24545267
0003a0 82 20 9b be bb d3 09 bf 8c b8 05 be f6 08 11 3e
       -0.3029824 -0.538387 -0.1305868 0.14163575
0003b0 df af ce be c5 7a b9 be c3 48 02 be f1 d6 1a be
       -0.40368554 -0.36226478 -0.12723069 -0.15121056
0003c0 f9 79 bf be aa c4 25 bf 04 71 5e be 93 23 0d be
       -0.37397745 -0.6475321 -0.217228 -0.13783102
0003d0 45 32 8d be 74 d6 c5 be d8 6b b0 3d d6 43 a6 be
       -0.27577415 -0.38640177 0.086143196 -0.3247363
0003e0 83 59 60 be 3b f0 e8 be 30 bb 15 3f 5f 03 11 3f
       -0.21909146 -0.4549578 0.5848875 0.5664577
0003f0 9b 4c e6 3e fa 84 ed be c1 64 17 be ea 0e 70 3e
       0.4498032 -0.46390516 -0.14784528 0.2344319

linear2.weight f4 [3, 256]
000000 e0 ec 53 3e db d2 b5 3e 67 c5 19 3e 82 4a 5f 3e
       0.2069583 0.35512432 0.1501671 0.21805766
000010 e9 a2 1d be 66 47 70 be a8 e6 08 bc ee d7 76 bc
       -0.15394177 -0.23464736 -0.008355774 -0.01506613
000020 f0 7a a2 3e d5 14 cb 3d 09 63 f6 bd 0b d4 4f 3e
       0.3173442 0.09916083 -0.12030608 0.20295732
000030 c3 de 98 be 0a 65 44 3c 62 eb f2 bb e4 3d 0c bd
       -0.29857454 0.01198698 -0.0074133137 -0.03423871
000040 b2 14 a7 3e 44 e9 3c ba b9 87 e3 be 88 29 de 3e
       0.32632977 -0.000720639 -0.44439486 0.4339106
000050 bd 50 6c 3e 4e ae e7 3f e7 80 de 3d 80 2d 60 3d
       0.23077674 1.8100069 0.1086443 0.054730892
000060 6a ab 1d bf 70 b1 0f ba c3 fd 90 be 2a cd 10 3b
       -0.6158968 -0.00054814573 -0.28318605 0.0022094944
000070 94 ee a1 be 5e dc e7 be 5b e1 e3 be 90 6b a9 3e
       -0.31627333 -0.45285314 -0.4450787 0.33089876
000080 9b 38 43 3e f0 56 99 be 16 1f b0 be 46 76 0b be
       0.19064562 -0.2994914 -0.34398717 -0.13619336
000090 7c d5 b1 3e e8 8c 56 3f 58 fb 92 bd f7 f6 0a 3d
       0.34733188 0.83808756 -0.07176846 0.03392693
0000a0 48 f8 1e bd 34 89 a1 3e 03 98 89 3a 67 d2 e7 3e
       -0.038811 0.3154999 0.0010497574 0.45277712
0000b0 5f c4 fd 3e 0c f2 cf 3c 74 04 1b 3e a5 6f 1a 3d
       0.49563882 0.025383972 0.15138417 0.03770413
0000c0 72 a3 8c 3d 49 9f 64 bc c5 90 93 3e 93 96 ca be
       0.06867112 -0.013953992 0.28821388 -0.39568004
0000d0 31 aa 6d 3c ba 97 12 3f 52 9a ae 3e a4 37 a5 3c
       0.014505909 0.57262766 0.34102112 0.020168133
0000e0 85 13 b0 bd af d2 a7 3e 05 cc a7 bd 55 72 27 3f
       -0.08597473 0.32777926 -0.081932105 0.6540883
0000f0 7f 2b 70 3e 71 56 ad 3e 44 de 02 3e 80 ba c1 bd
       0.23454092 0.33855012 0.127801 -0.094594
000100 17 44 82 3e ab 04 31 3e 8f ad 49 3e 8b ec 9f 3e
       0.25442573 0.17286937 0.19695114 0.31235155
000110 3e b5 98 3e 5a b3 f7 3e 4b 12 84 be 03 9b 72 bc
       0.29825777 0.48379022 -0.25795206 -0.0148074655
000120 b3 dc 0d be c7 aa a7 be 6a cc e7 3d a6 fe 89 3e
       -0.13853721 -0.3274748 0.11318286 0.26952094
000130 fd e4 a9 3e 90 63 26 bf 4b 14 0a bb 4c 22 26 3f
       0.33182517 -0.6499567 -0.0021069224 0.6489608
000140 f5 d8 49 bc 50 c5 83 be 35 ea 91 3d 12 2f 56 3e
       -0.012319793 -0.25736475 0.071247496 0.20916393
000150 d4 60 29 bc cb 05 69 3f 5f 19 d4 3b 44 48 48 be
       -0.010338027 0.91024464 0.006472751 -0.19558817
000160 66 38 20 3e e8 e9 63 be 26 10 13 be 31 b9 fb 3e
       0.15646514 -0.22257197 -0.14361629 0.49164727
000170 af 93 a7 3e 02 76 3e bd 35 26 1e bd 53 8b b1 bd
       0.3272986 -0.04649926 -0.038610656 -0.08669152
000180 fe 5c 5e bd 08 d6 51 3e bc 83 0d 3f 7a 8b 02 be
       -0.054287903 0.20491803 0.55279136 -0.12748519
000190 04 cf 7a bc 6f dd 10 3d 2f 04 0a bf cb 89 24 bf
       -0.015308145 0.035367426 -0.53912634 -0.64272755
0001a0 3a 41 ac 3d 68 af 6c bd a7 9f e3 bd c6 f8 d7 3e
       0.084108785 -0.057784468 -0.11114436 0.42181987
0001b0 e5 93 00 3f 63 6c c4 3e c7 37 00 3d a3 e3 ec 3f
       0.5022567 0.38363943 0.031303193 1.8506969
0001c0 16 92 dd bb 81 08 8f 3c 26 82 44 3c e7 9c 80 3e
       -0.0067617996 0.01746011 0.01199392 0.25119707
0001d0 84 84 a3 be cd 1e 82 3d 9e cf c1 3e 8e c9 21 be
       -0.3193704 0.06353531 0.37853712 -0.15799543
0001e0 9e 7e cb 3b 01 9e 1c 3e cf 9c 89 3e cf 7e a2 bc
       0.0062101623 0.15294649 0.26877448 -0.019835858
0001f0 ab 34 db 3b 75 89 d3 3d 70 8c 3b 3e 68 c7 dc 3e
       0.006689628 0.10328952 0.18315291 0.43120885
000200 58 17 8b 3e f7 61 85 3c 69 ee b3 3c 7b 95 d3 3c
       0.27166247 0.016282065 0.021964269 0.025828114
000210 f0 91 14 3d 96 dd b5 3e a3 dc 0e 3d fc 13 b4 3b
       0.03627199 0.3552062 0.034878384 0.0054955464
000220 41 1f a7 3b 24 98 be 3d 15 46 e4 3d 2e bf a0 3e
       0.0051001613 0.09306362 0.111461796 0.3139586
000230 7d e1 1f 3e eb c5 1e be 6a f4 a1 3e 16 7c 5c be
       0.1561336 -0.15505187 0.31631786 -0.2153171
000240 ca 5d db 3e 8e 87 27 3c 44 75 8b 38 8d a6 d9 3e
       0.42844993 0.01022519 6.649879e-05 0.4250988
000250 60 45 3a be e5 7d 83 bd d5 23 f3 bd 6d fa 0f 3f
       -0.18190527 -0.06420497 -0.11872069 0.56241494
000260 b6 21 39 3e bb 30 68 3e 4d c2 9b 3e 1f 70 ac 3e
       0.18079266 0.22674839 0.30421677 0.33679292
000270 fa 8a 30 3f 9f c3 f1 bd 8a 43 0f 3e 0b e6 a0 3f
       0.6896206 -0.1180489 0.13990608 1.2570204
000280 e6 f0 9f bd e3 92 2b 3f cc e6 ee bc 9e fc 10 3f
       -0.078096196 0.67021006 -0.029162787 0.56635463
000290 0d 4e e3 3d eb d4 7f 3e 42 50 8a 3e f6 d0 2b 3b
       0.110988714 0.24983566 0.27014357 0.002621708
0002a0 ec 2d f5 be 85 5d e5 3d 1e 25 a2 bc 44 cd a5 3d
       -0.47886598 0.11199478 -0.01979309 0.08095792
0002b0 58 7d a5 bb 2c ea 00 bd 3f 51 56 3d d7 14 2e 3b
       -0.0050503425 -0.031473324 0.052323576 0.0026562714
0002c0 bf 27 99 3e fb 45 6a be 75 be 12 3d ab 59 70 be
       0.29913136 -0.22878258 0.035826165 -0.23471706
0002d0 36 81 bf 3e 20 ed 12 3c 76 96 69 bd ae f2 24 3e
       0.37403268 0.008967668 -0.057028256 0.161082
0002e0 53 44 0d bf 0b 08 ec bd fb 4d 35 bd 39 63 40 bf
       -0.5518238 -0.115249716 -0.04426382 -0.751514
0002f0 c1 11 ac 3e d1 7f 11 3c cd e4 0e be 44 1f 31 3d
       0.33607295 0.008880571 -0.13954468 0.043242708
000300 13 61 09 bd fe e3 b9 3e 0a d8 af 3e 2c 8e e9 3e
       -0.033539843 0.36306757 0.34344512 0.4561628
000310 24 b9 69 be 92 24 8e be 7a 07 e5 3e ad bb b4 3d
       -0.22824532 -0.27762276 0.44732267 0.08824859
000320 13 c8 ce be 5b 26 f6 bc 4a 8b ff be 57 b5 85 3d
       -0.4038702 -0.030047586 -0.49910957 0.065287285
000330 35 11 f5 bc 5c 1e a0 3e c9 05 de 3f b5 20 80 3d
       -0.029915432 0.31273162 1.7345515 0.06256238
000340 5d aa a5 be 88 55 35 3c 56 fb dd bd 69 60 8f 3f
       -0.3235654 0.0110677555 -0.10838954 1.1201297
000350 07 db 88 bd 55 c2 9b 3e 12 e0 c3 3d 1d 8a e0 3e
       -0.06682401 0.304217 0.095642224 0.43855372
000360 ca 92 0b 3f b3 2e 4c bc 70 e2 ce be 80 60 30 be
       0.5452086 -0.012462306 -0.40407133 -0.17224312
000370 cc 51 b5 bd 27 c9 ed be a9 17 9b 3f 21 04 bd be
       -0.08853492 -0.4644253 1.2116596 -0.36917213
000380 01 1d 11 bf 29 f3 b3 3d e3 96 c4 bc 10 40 69 3e
       -0.5668488 0.087866135 -0.02399773 0.22778344
000390 9c 43 9d ba be 35 6e 3f c9 63 56 be f0 6f 3c be
       -0.0011998299 0.93050754 -0.20936503 -0.18402076
0003a0 c5 48 99 bd 6e 9b e4 bc 67 b6 96 be c7 8e ff ba
       -0.07484583 -0.027906146 -0.29436037 -0.0019497507
0003b0 25 04 15 bd 37 f0 f8 bc 64 01 c3 3d 93 ad 7b be
       -0.036380906 -0.03038798 0.095217496 -0.24577932
0003c0 32 5b 72 bc 8b e1 5e be cc 11 ae bc 36 1b 00 bf
       -0.0147922505 -0.21765725 -0.02124872 -0.5004152
0003d0 9f 56 f0 37 84 6e dd 3e 55 76 db 3d 2b 6c 10 be
       2.8650566e-05 0.4324838 0.107159294 -0.14103763
0003e0 9e 72 15 3f bf 59 96 be 24 d2 49 3e a2 cc aa 3e
       0.58378017 -0.29365346 0.19709069 0.33359247
0003f0 f2 97 9a 3e 52 ae b3 3b 64 97 ad be f4 90 86 3d
       0.3019405 0.005483427 -0.33904564 0.06570616

linear2.bias f4 [3]
000000 59 b2 09 3f fb fa 9e 3d 8b eb 88 bd
       0.5378776 0.077627145 -0.06685551
